rlbot-support/Necto/necto-model.pt (torch, 734598 bytes, 18 tensors)

weight f4 [128, 32]
000000 3d ab 06 be 85 72 5b bd 42 cf b3 bd 9a 87 88 3d
       -0.1315126 -0.05357601 -0.08779766 0.06666489
000010 0a 3d 1a be 60 26 ac 3c b9 b3 e9 bd 22 17 05 bf
       -0.15062347 0.021014392 -0.114112325 -0.5198842
000020 0a ac fb bd 27 07 d1 3d 65 48 e8 3e d0 99 34 3c
       -0.12288673 0.10206442 0.45367733 0.011023
000030 bc bf 65 be a8 64 fb 3c df 1d 3b be 6a 70 59 3c
       -0.22436422 0.030687645 -0.18273114 0.0132714305
000040 22 dc cf bd 5b e5 e8 3d c9 83 4f bd 48 0e 80 bd
       -0.10149409 0.11371871 -0.05066279 -0.06252724
000050 90 c4 c0 3d dc a3 7f bc 25 e6 32 3c 2e 0b a2 3e
       0.09412491 -0.015603032 0.010919129 0.31649154
000060 72 34 c2 3c 95 bb 3d bd 90 07 cb 3c 6b 45 9b 3d
       0.023706648 -0.04632147 0.02478388 0.075816
000070 98 b5 29 3d fc ff 1b bf bc eb 76 3e 01 71 8b 3d
       0.041432947 -0.60937476 0.24113363 0.06808663
000080 bf 44 fa 3d bc 8b f1 3d 31 7b 16 3e b8 36 bf bc
       0.122201435 0.1179423 0.14695431 -0.023341522
000090 78 16 19 be 53 a4 a6 bd e5 71 71 bd 5f 19 48 3d
       -0.14949977 -0.08136811 -0.05894651 0.04885232
0000a0 c7 d8 24 3d 86 26 4a be 8b d2 93 be f3 92 67 3e
       0.040245797 -0.19741258 -0.2887157 0.2261465
0000b0 b8 1f ee 3c f1 6e 30 3e 97 a4 91 be a5 e6 87 bd
       0.029067859 0.17229821 -0.28445885 -0.06635789
0000c0 c1 4f 8b 3e 7e 39 59 3e f1 04 86 bd 79 0d 0b bd
       0.27209285 0.21213338 -0.06543911 -0.033948395
0000d0 37 93 13 3d bb ac a9 3d 7e 72 50 3d 3d 45 16 be
       0.036029067 0.08284899 0.05089044 -0.1467485
0000e0 16 bb 98 bd 3a 1d 84 3d f2 99 39 3d ce b0 35 be
       -0.07457559 0.06450887 0.04531283 -0.17743227
0000f0 aa e9 90 bd fe 79 db 3e 4c 15 af bd 26 f3 7c bc
       -0.07075818 0.4286651 -0.08548984 -0.0154388305
000100 bf d8 49 bd bf 2c e7 3c 48 e0 28 bd b0 23 9f bc
       -0.04927897 0.028219579 -0.041229516 -0.019426197
000110 55 79 30 be c3 13 53 3e 1e c3 f5 3d 1c 63 65 3e
       -0.17233784 0.20613007 0.12000106 0.22401088
000120 f6 3f 35 be aa 8e 78 be fd 16 df 3e 23 ae a0 bd
       -0.1770018 -0.24273172 0.43572226 -0.07845714
000130 dd f7 53 3d 69 6e bf be 74 d5 a1 be b2 b1 e0 3c
       0.051750053 -0.37388924 -0.31608164 0.027428482
000140 b2 98 0f 3e a2 e0 1b 3e f7 77 31 3d 7d bf 2a 3e
       0.14023092 0.1522241 0.043327298 0.1667461
000150 81 65 22 be b5 6f 04 be cf 43 84 be 71 96 6c 3e
       -0.15859033 -0.12933238 -0.25832984 0.23104264
000160 8d 27 7c 3d bd 5b ad bc 52 62 2f be 42 39 45 3d
       0.061561156 -0.021161908 -0.1712735 0.04815031
000170 04 cd 6a 3d a1 49 38 be dd 0b ea ba 51 28 81 3c
       0.057324424 -0.17996837 -0.0017856319 0.015766295
000180 d4 d1 0b 3e c0 ae a9 3d 49 2d 11 3e 94 0b 18 bd
       0.13654262 0.08285284 0.14177431 -0.037120417
000190 1d ea 09 3e a8 fd af bd dc e6 ea 3c e2 30 85 bf
       0.13468213 -0.08593303 0.028674535 -1.0405543
0001a0 25 9c 47 be fe 6d 3f be f1 1e 19 be 04 e4 19 3e
       -0.19493158 -0.18694302 -0.1495321 0.15028387
0001b0 00 c6 34 3e c4 c6 49 bd 89 69 45 3e c5 79 45 bc
       0.17653656 -0.049261823 0.1927854 -0.012052958
0001c0 db f9 21 3e 18 18 82 bc f2 0b 28 3d c9 4f 32 3d
       0.15817969 -0.01588063 0.041027017 0.04353312
0001d0 3b 97 62 be 5f b2 eb be e7 3a 4e bd e9 b9 8d 3e
       -0.22128002 -0.46034524 -0.050349142 0.276809
0001e0 eb d4 cc bd b9 f4 10 3d 34 df 06 3e b6 b2 82 bd
       -0.100015484 0.035389636 0.13171083 -0.06381743
0001f0 89 f7 86 3d ca 86 3a bf f7 67 58 bb e8 65 3f 3d
       0.06590182 -0.7286192 -0.0033020952 0.046728045
000200 42 9d b7 3d b4 65 38 3e ba 52 92 bd 24 4d 3e 3d
       0.089655414 0.18007547 -0.07144685 0.046460286
000210 00 09 82 3a 5f 15 7e be ef c9 a1 bd a7 66 de 3e
       0.0009920895 -0.2481284 -0.07899844 0.43437693
000220 1c 96 18 be 61 02 c7 bb 56 90 7e 3e 7d dc 57 be
       -0.14901012 -0.0060732816 0.24859747 -0.21080203
000230 38 2e da 3c 8f a0 d0 3d 63 c5 92 3d ed 8f db 3e
       0.026633367 0.10186874 0.07166555 0.42883244
000240 c9 6f ff bc c3 44 8a be 4d 00 91 bd b3 89 db bc
       -0.031181233 -0.27005586 -0.070801355 -0.026799059
000250 ec 33 f2 be da 98 21 be 20 85 2d be 23 02 e6 bc
       -0.47305238 -0.15780964 -0.16945314 -0.02807719
000260 32 c6 9e 3b 19 db b1 3b a0 b8 76 3d 9c dc 2a bd
       0.004845404 0.00542773 0.060234666 -0.041714296
000270 67 0f 79 bd 32 c2 e8 3d 4b 9b 60 be bf 86 b3 3d
       -0.060805704 0.11365165 -0.2193424 0.08765935
000280 3e a5 89 3d d6 2e 4e 3e 3f be 00 be 31 2a 11 3e
       0.067209706 0.20135054 -0.12572573 0.14176251
000290 41 d2 18 3e 8e a7 11 3e 1b db 52 3b f4 ec b6 bd
       0.14923956 0.14224073 0.0032174054 -0.08931914
0002a0 ca d0 1a 3f 75 b6 93 3e a0 91 f7 be 48 55 85 be
       0.60474837 0.2885014 -0.4835329 -0.26041627
0002b0 87 c7 03 bd 24 c0 c0 bc 0e 43 9d be 99 62 0e be
       -0.032172706 -0.02352912 -0.3071522 -0.139048
0002c0 35 ab 57 be 4a a1 03 be b9 5c 8d bb c6 bf 02 3e
       -0.21061404 -0.12854496 -0.004314032 0.12768468
0002d0 fd d8 55 3d d8 3b 17 be 7b c3 8f 3e 44 49 eb 3b
       0.05220889 -0.14768922 0.28078827 0.007180365
0002e0 ab 0f 5b bd bb d6 a5 bd fe 2c 9a bc 64 c5 a0 3d
       -0.05348174 -0.08097597 -0.018820282 0.07850149
0002f0 e8 6d 73 3d a9 76 7a be f1 da 49 be 66 b5 30 bd
       0.059430987 -0.24459328 -0.19712426 -0.043141745
000300 33 55 c6 3c 7a 61 cc 3d ff 59 0c be ae 9b a7 bd
       0.024210548 0.0997953 -0.13706206 -0.081839904
000310 94 6a 66 3d 56 d6 68 be 28 5d 00 3e 84 40 e1 3c
       0.056253985 -0.22738013 0.12535536 0.027496584
000320 9f 68 8a bd ea a0 20 3e 44 32 96 bc 52 0c d3 bd
       -0.06758236 0.15686384 -0.018334515 -0.10305084
000330 1d 4e bc be b8 7c 9a 3d 90 99 9c bd 5b 77 97 3d
       -0.36778346 0.075433195 -0.07646477 0.07395812
000340 93 95 81 3c 44 27 1a 3e 63 e6 e1 3d 65 b6 f4 3d
       0.015818393 0.15054041 0.11030271 0.119488515
000350 16 9a 7f 3e a3 6d 72 be 7c 3f 29 3d 2e 7f 57 3c
       0.24961123 -0.23674636 0.04132031 0.013152881
000360 f5 28 ac 3d f2 47 e9 3c 30 0b be 3b 34 aa c8 3d
       0.084062494 0.028476689 0.0057996735 0.09798089
000370 f6 ab 07 3c 44 12 82 be 77 df 77 3d cc f7 a1 bd
       0.008280745 -0.2540456 0.060515847 -0.07908592
000380 82 95 0f 3e 8d bf 0e be 51 f7 b2 bd 46 19 15 be
       0.14021876 -0.13940258 -0.08738578 -0.14560422
000390 c4 9f 90 3d 55 e9 76 3d 1c 2d 64 bd 72 4c 1a bf
       0.07061723 0.060281117 -0.055707082 -0.60272896
0003a0 b1 c6 ef bd 34 56 8a bc 0c c0 0e 3d d1 57 97 bd
       -0.11707819 -0.016886808 0.03485112 -0.073897965
0003b0 bf 68 2d 3e 9c 03 b3 3d 92 a6 82 be 2b 6e 03 3d
       0.16934489 0.08740923 -0.25517708 0.032087486
0003c0 49 95 1f 3e 0e c5 45 be f5 a6 12 be f7 62 7c bd
       0.15584292 -0.19313452 -0.14321502 -0.061617818
0003d0 b7 c5 62 3e 0a 35 6d be 07 15 56 be 1e af 77 bd
       0.22145735 -0.23164764 -0.20906459 -0.06046974
0003e0 12 bb ef 3d 48 79 04 3d ea f0 b5 3d a4 1e c7 bd
       0.11705603 0.032342225 0.08883841 -0.09722641
0003f0 f6 9b 2f 3d d4 dc 91 bd 8c 3b dc 3a 14 9e 1b 3e
       0.042873345 -0.07122198 0.0016802414 0.15197021

bias f4 [128]
000000 c7 23 51 3d 8c 28 7b bd 4a 84 a7 bd c1 ee d0 bd
       0.05105951 -0.061317965 -0.08179529 -0.10201789
000010 ae 0e 35 3c 83 de 1d bc 8b 1a 46 be 16 f7 49 3e
       0.011050863 -0.00963557 -0.19346063 0.19723162
000020 ec e3 66 3d 70 51 ae 3b 20 f8 8f 3d 64 56 8f 3d
       0.056369707 0.0053197667 0.07029748 0.069988996
000030 22 e0 11 3e ff d8 99 3d 31 18 07 be 76 ab 78 bd
       0.14245656 0.07512092 -0.13192822 -0.060710393
000040 69 66 04 be cc cf 81 bb cb 68 01 bd ca 5d 8b bd
       -0.12929691 -0.003961539 -0.03159408 -0.06804998
000050 72 6a fb bd cf f9 82 3d ba 7e 32 3e 8e 2d 83 bd
       -0.12276162 0.063953035 0.17431155 -0.06405173
000060 20 bf 20 3e 54 e5 dc bb 01 6a 18 bd 14 37 13 be
       0.15697908 -0.006741205 -0.03721047 -0.1437648
000070 50 bf 5c 3d 31 8e 3d be 03 54 14 3c 32 c0 3d 3e
       0.053893387 -0.18511273 0.009053233 0.18530348
000080 e2 b3 20 bd e3 67 2a 3d 31 51 b1 3c 1a af b3 3d
       -0.03923405 0.04160298 0.02164516 0.08773632
000090 fa 48 0c 3e ca 7c 96 bd e1 b8 af bd a4 ee 99 bc
       0.13699713 -0.073480204 -0.08580185 -0.01879055
0000a0 61 6b 8a 3d b1 8a 04 3c 02 da 4e bd 7b 85 30 3e
       0.06758762 0.008089707 -0.050500877 0.17238419
0000b0 ea 93 32 3d c3 5d a5 3b d6 f2 06 bd c2 61 74 bd
       0.043598093 0.0050465777 -0.03294643 -0.05966354
0000c0 bf a8 d6 bd 65 bf 72 bd f7 f3 ac bd 78 da c6 3c
       -0.104814045 -0.05926456 -0.0844497 0.024274096
0000d0 b4 f8 23 bd 16 54 12 bd 07 76 70 3e e7 f9 03 bd
       -0.040032104 -0.03572472 0.23482524 -0.032220747
0000e0 3f e1 7a bc b0 79 6b 3d 9e 9c 43 bd 73 f3 00 3e
       -0.015312492 0.057489097 -0.047756784 0.12592869
0000f0 83 f6 57 bd 46 c4 2d be a5 06 d5 bc f1 46 83 bd
       -0.052725326 -0.16969404 -0.026004145 -0.064100154
000100 54 6a 21 3e 4d f9 97 3d 05 f2 4b 3e 4e 95 5b 3d
       0.15763217 0.07420597 0.19916542 0.053609185
000110 0e 37 76 bd dc 93 d8 3d 12 b3 83 ba 11 c6 83 3d
       -0.060111098 0.10575077 -0.0010047874 0.064342625
000120 3a bc 30 3d ac bd f9 bd 9d 70 4a 3d 91 cd 02 3e
       0.043148257 -0.1219438 0.049423803 0.1277373
000130 aa a0 84 bd 33 11 cf 3d 56 61 8a 3d d7 a7 08 3d
       -0.06475957 0.10110702 0.067568466 0.03336319
000140 77 bc 6d bd 33 6b 11 be 82 aa a4 bd 1f 4f a7 bb
       -0.058041062 -0.1420105 -0.08040334 -0.0051058675
000150 4e f9 94 bd 83 b4 70 3d 1c 6c d5 3d c0 f8 d0 3d
       -0.072741136 0.0587659 0.10421011 0.10203695
000160 cc b1 2d be c5 3d c7 3d da 1f f4 bc e5 43 e7 3d
       -0.16962355 0.097285785 -0.029800344 0.11292247
000170 b5 09 83 bd 79 14 10 bd 7a 01 03 3c 91 ec 3a bb
       -0.06398336 -0.035175774 0.0079959575 -0.0028522352
000180 68 d5 ef 3d 97 ce 30 3e 76 cd a7 3d 93 b0 94 3d
       0.11710626 0.17266308 0.081934854 0.07260241
000190 c0 0d ad bc 76 05 ae bc 8c 95 aa 3b 81 55 b3 3c
       -0.02112472 -0.021242838 0.0052058157 0.021891357
0001a0 2d be 42 3e 03 1d 8c 3d 55 66 e5 3d f5 0d 40 3e
       0.19017859 0.06841471 0.11201159 0.18755324
0001b0 bc 80 de bd ff 2b e1 3d 8c c7 dd 3d cd 36 09 bd
       -0.10864398 0.1099472 0.10829076 -0.033499528
0001c0 7d 6c 4f 3e 3f 20 ed bc da b3 8a 3d c7 27 6b bd
       0.20256229 -0.02894604 0.06772585 -0.05741098
0001d0 5e 25 4e bd 47 c2 f0 bd 77 2e 33 3e 91 f0 1f 3d
       -0.050328605 -0.117558055 0.17498194 0.03904778
0001e0 0f 1c 0c 3e 3b d9 fd 3d 5a 73 1d 3e b1 d0 3c 3e
       0.13682579 0.12394949 0.15376034 0.18438984
0001f0 a8 c6 18 bd 53 37 ca bd c6 9a 57 3d 56 fb 7a 3d
       -0.03729883 -0.098738335 0.052637838 0.06127485

weight f4 [128, 128]
000000 5f dc a4 3c fc 4f 2e be 92 ee 14 3e 34 a4 29 bc
       0.020124612 -0.17022699 0.14544132 -0.0103540905
000010 eb 5c b2 bd 40 e2 79 3d 83 c5 12 be 31 a1 d1 3d
       -0.08709129 0.061006784 -0.14333157 0.10235823
000020 8e d2 90 3d d2 60 1c be ba 43 ac bd fb 8e b3 bb
       0.0707141 -0.15271309 -0.08411355 -0.005479691
000030 57 9d 56 bd bf ae ad 3b 43 26 50 3c d7 07 fd bd
       -0.052396145 0.0053003724 0.012704435 -0.12355011
000040 63 97 31 3d d9 11 bb bc 5c 05 a7 3c 5e 72 9c 3d
       0.043357264 -0.022835659 0.020388298 0.07639001
000050 54 e1 49 bd 3e b8 1c 3e c8 3e a1 3c 3e 27 36 be
       -0.049287155 0.15304658 0.019683257 -0.17788407
000060 26 98 33 3e 67 2c 60 bd cd ba a1 bd a1 00 b3 bd
       0.17538509 -0.054729845 -0.078969575 -0.08740354
000070 b1 6d b0 3d 34 eb 14 be 2a 93 c5 bc a0 55 66 3d
       0.08614672 -0.14542848 -0.024118025 0.056234002
000080 61 4e 44 bd 2b fa 5e 3d cc 76 fc 3d 1e 39 fe 3c
       -0.04792631 0.054437798 0.12327346 0.031033095
000090 dd db 77 be db 86 0e be b2 39 01 bd eb 77 17 be
       -0.24204965 -0.13918631 -0.031549163 -0.14791839
0000a0 11 15 d3 3d f8 51 47 be 02 b5 6b 3e 10 74 e1 3a
       0.103067525 -0.19464862 0.23018268 0.0017200727
0000b0 11 14 1f 3c 77 a4 5f bc 5b 75 1c ba 37 96 65 bd
       0.009709374 -0.013650051 -0.0005968415 -0.05605146
0000c0 a6 a5 7d bc dc 13 40 3d 6a 41 22 3e 74 a6 b2 3d
       -0.015481388 0.04689394 0.15845266 0.08723155
0000d0 d6 f9 51 3d 80 62 09 3d 06 6d ff 3d 27 24 09 3c
       0.051263653 0.033541203 0.124719664 0.008370436
0000e0 4f f0 d8 bc 81 d0 78 3d dc f2 16 3d 73 1a a1 3e
       -0.026481776 0.06074572 0.036852702 0.31465492
0000f0 23 b3 91 bd f5 38 07 3e 94 49 06 3e e0 be b7 3d
       -0.07114246 0.13205321 0.13114005 0.089719534
000100 01 df 76 bd 07 3a 8f bd b4 74 37 bd 6a 6e 11 bb
       -0.060271267 -0.0699349 -0.04478903 -0.0022191056
000110 43 3c 1f 3e b9 a7 a5 bc 80 0b 46 bd ed 0f b3 bd
       0.15550332 -0.020221578 -0.04835081 -0.08743272
000120 ee 7a b6 3c c6 34 be 3d f1 40 93 3d dc fa c6 bc
       0.022275414 0.092874095 0.07190121 -0.024289541
000130 55 45 2b bc 3b ae 17 bd e1 02 8d bd 93 d3 bb bc
       -0.010453542 -0.037031393 -0.06885315 -0.022928035
000140 d4 53 09 be 7d 17 2b be eb 21 07 bd 70 de 54 3e
       -0.13410884 -0.16708179 -0.03299133 0.20787978
000150 ab ff b0 3c 45 d2 bc 3e 23 96 9d 3c 8d 32 d4 3c
       0.021606287 0.36879173 0.01923663 0.02590301
000160 bb fa 2d 3e b7 f0 b4 bd 72 ed 48 bc 1f 7b 64 bd
       0.16990177 -0.08834975 -0.012263643 -0.05578148
000170 20 42 d6 3d ec ae 6b bc e9 8b ef bd b2 2b 11 3e
       0.10461831 -0.014384966 -0.116966076 0.14176825
000180 4e 20 32 3d e6 33 f7 bd 46 0f 26 bd 3b 66 82 bd
       0.04348784 -0.12070446 -0.04054191 -0.06367155
000190 a2 c8 62 3d 0c cf 8a 3d 70 fa 3e bd a8 49 06 3d
       0.05536712 0.06777772 -0.046625555 0.032785088
0001a0 b5 ae 36 bd 83 d1 18 be 3e af 54 bc 01 38 9d bd
       -0.044600207 -0.14923672 -0.012981234 -0.076766975
0001b0 b7 1c 21 bd ff bc 62 bb 81 4a c4 bd ba 9c 0c 3d
       -0.039334025 -0.0034597514 -0.09584523 0.034329154
0001c0 db 22 68 3a 75 f6 45 3b 22 a4 a3 bd 57 8a 14 3d
       0.00088552915 0.0030206714 -0.0799029 0.036264744
0001d0 bb 16 09 bd 29 25 a5 3c 99 79 18 bd 3a 9e 61 be
       -0.033468943 0.02015932 -0.03722534 -0.22033015
0001e0 82 1f 96 bd fa 9d c8 bd 44 00 c3 bd a1 10 68 3c
       -0.073302284 -0.09795757 -0.09521535 0.014164121
0001f0 1a 56 80 bd ee 94 b8 3d 59 99 e3 3d ba db 41 3d
       -0.062664226 0.09012781 0.11113233 0.04732869
000200 22 2e 19 3d 3a bf 1c 3c 4c d9 46 3c 56 c1 db 3d
       0.03739751 0.009567076 0.012136769 0.10730235
000210 79 d8 75 bc 47 75 4b bd ec 4b 12 be 31 86 0c bc
       -0.015005224 -0.04967239 -0.14286774 -0.008576916
000220 04 dc d1 3d 75 9e 18 3e 1f 47 49 3d 0c f0 83 3b
       0.10247043 0.14904197 0.049140092 0.0040264186
000230 d6 0b c0 3c 83 8c f4 3c bc 6e c2 3d cd 61 0a 3e
       0.023443144 0.029852157 0.09493777 0.1351387
000240 64 e8 69 be 97 79 3f 3e 02 54 9e 3c d1 d0 1e 3d
       -0.22842556 0.18698727 0.019327167 0.03877336
000250 e0 42 ad bd c7 26 47 3d 05 29 6d bd e1 ed b1 be
       -0.08460021 0.048620965 -0.057900447 -0.347518
000260 c3 f3 2b bd 8b c9 91 be 8c a2 a6 3d 35 dd 70 3c
       -0.041980516 -0.28474078 0.08136472 0.014701177
000270 56 f2 e2 3d 74 7e c2 bd 59 54 25 bd d7 d7 92 3d
       0.11081378 -0.09496775 -0.040363643 0.071700744
000280 f9 3c 9b bc 53 f8 b6 3d 95 47 29 be 7f 8d 15 3e
       -0.018949972 0.08934083 -0.16531213 0.14604758
000290 b1 13 cf bc fb fc 02 3d e7 df cb bd 70 2a fe 3d
       -0.025277944 0.031979542 -0.09954815 0.12410438
0002a0 b1 c0 33 3d ff ee ad be 0b 1e c0 bc d5 4f 6c 3c
       0.043884937 -0.33971402 -0.023451826 0.01442333
0002b0 b2 9a ca bd 2b 72 66 bd 28 74 54 3e 5f 1b 96 bd
       -0.09892787 -0.056261223 0.20747435 -0.07329439
0002c0 f0 aa c2 3d bf 82 50 be ec ab 6b 3e 1e 43 bb bd
       0.0950526 -0.20362376 0.23014802 -0.09143661
0002d0 3f 37 3e 3d 41 c1 7b 3d cd c3 02 be 17 c0 96 bc
       0.046439406 0.0614636 -0.12770005 -0.018402142
0002e0 8b aa 42 be 36 81 f8 bd 15 e5 be 3d 65 66 57 bc
       -0.1901037 -0.1213402 0.09321038 -0.013146971
0002f0 71 6d e4 bc 7e 1c 91 3d b7 d8 39 bc ed a4 3b 3d
       -0.027884217 0.070855126 -0.011343173 0.045811582
000300 2f fe ab 3d 52 bf de 3c d7 41 ca 3d a9 1d 43 bb
       0.08398091 0.027190838 0.09875839 -0.0029772318
000310 35 3b 0b 3e 41 a1 30 3d d7 69 1a 3e 64 21 30 3e
       0.13596804 0.043122534 0.15079437 0.17200238
000320 03 d9 c3 bd aa 81 a1 3d 70 d3 96 3c ac c9 97 3d
       -0.09562876 0.078860596 0.018411368 0.07411513
000330 cf 61 c1 3d 95 70 dd bc b4 45 51 3d c9 bc 0d be
       0.09442484 -0.027031222 0.051091865 -0.13841547
000340 63 24 96 bd 1c 93 f2 3d 49 05 b3 bb 45 fb 8d 3d
       -0.07331159 0.11844465 -0.0054632765 0.069326915
000350 c0 b6 cb 3c 48 45 61 3d 5c 78 04 be 0b 15 ef bd
       0.024867415 0.054997712 -0.12936538 -0.116739355
000360 42 b5 98 3d e3 a0 22 3d be 81 24 bd 75 fc 8b 3d
       0.07456447 0.039704215 -0.040162794 0.06835262
000370 e5 91 ec 3d 5e 55 e3 3d 2a 31 6d 3d 65 39 93 3d
       0.11551265 0.11100267 0.057908215 0.071886815
000380 b7 41 2f 3d 2a 7b 4e 3d ab b8 02 3b 22 b2 7d 3d
       0.04278728 0.050410427 0.0019946496 0.06193746
000390 65 ca d8 bd 56 15 82 bd a5 a2 32 bc 3b e0 f4 bc
       -0.10585479 -0.06351726 -0.010903035 -0.029892078
0003a0 15 00 62 bc 88 2d 6b bc 8e ab 28 be 8d 68 ee 3d
       -0.013793965 -0.014354117 -0.16471693 0.11641035
0003b0 2a d2 c7 bd 16 30 93 3d 6e eb 56 3d db 7e 17 ba
       -0.097568825 0.07186906 0.052470617 -0.0005779096
0003c0 9b af 29 bd 18 c3 c1 bd 58 3c c1 3d 01 70 36 be
       -0.041427236 -0.09461039 0.09435338 -0.17816164
0003d0 70 ec 39 bd da 96 32 3d 97 de df bd 29 f7 22 be
       -0.0453915 0.043600895 -0.109311275 -0.15914597
0003e0 9e 58 71 bc 6e 3f 0c 3d 26 a5 14 bd d0 c2 e5 3d
       -0.014730601 0.03424018 -0.03629031 0.11218798
0003f0 6a 23 a5 be 7d fa d2 3d d3 70 e1 bd 3d b5 1d 3d
       -0.3225358 0.10301683 -0.11007848 0.03850292

bias f4 [128]
000000 e3 91 66 bd 30 1a f2 3b f0 5e 33 3e d9 5a 0b 3d
       -0.056291472 0.0073883757 0.17516685 0.034022186
000010 77 17 ba 3d 77 c4 27 3d 29 f3 6d 3d 45 f9 05 3d
       0.09086507 0.040958848 0.058093224 0.032708425
000020 08 c0 87 3d a0 4f 75 3c 2f 7a 17 bc 90 15 8e 3d
       0.06628424 0.014972597 -0.009245439 0.069377065
000030 f7 65 49 bd 2a 86 ad 3d ef f7 87 bd 5d 51 dc 3a
       -0.049169507 0.084728554 -0.066390865 0.0016808916
000040 0e 52 87 3d f9 2b a8 3d 78 62 74 3d 93 34 49 bb
       0.066074476 0.08211512 0.05966422 -0.0030701503
000050 de 4b 22 bc 9a 93 51 bb 0c 67 f5 3c b4 16 7f bc
       -0.009905783 -0.0031978847 0.029956363 -0.015569378
000060 9d 8c a1 bd 6a 2c 2a bd 69 f5 ad bd 98 61 98 3d
       -0.07888148 -0.041546263 -0.08494074 0.074404895
000070 62 f7 37 bc db 37 7f bd c2 5c 4a bd 9f e8 96 3d
       -0.011228414 -0.062309127 -0.049404867 0.07368588
000080 d6 54 84 3c 3f 69 56 3c df 9f 1f 3d 1e b9 5c bd
       0.016153734 0.013086616 0.038970824 -0.05388748
000090 19 a6 25 3d 2e 26 4d 3d 1e 1e 65 bc db 14 f7 bc
       0.040441606 0.05008524 -0.013984231 -0.030161312
0000a0 b4 83 11 3d e8 6b 5d 3d 1c 24 89 3d 28 61 1e bd
       0.035525993 0.054057986 0.066963404 -0.038666874
0000b0 77 d8 2c 3d 9c bc 8f bc c2 b5 4b 3d bf e0 50 bd
       0.042198624 -0.01754599 0.049733885 -0.050995585
0000c0 c0 d2 8a 3d ad 63 98 3d f2 ad 26 bd 29 cb c7 3d
       0.067784786 0.07440887 -0.04069323 0.097555466
0000d0 09 90 90 bc 19 ac 64 bd 57 c7 73 bc 4b b8 3d 3d
       -0.017646806 -0.055828188 -0.014879069 0.046318334
0000e0 81 be ad bd 61 cc f6 bd 5f fb 87 bd 6a 4d 4e 3d
       -0.08483601 -0.12050701 -0.06639742 0.050366797
0000f0 ec db 8f 3d 2c 5b 91 bc 64 09 9c 3a 82 87 17 bc
       0.07024369 -0.01774367 0.0011904654 -0.009248616
000100 b1 3d b1 bc 32 f8 86 bd 5d eb 81 3d 30 10 a3 3d
       -0.021635862 -0.06590308 0.0634372 0.07962072
000110 4d 35 1b 3d 30 c8 45 3d 4e 87 40 3d ab 0a 16 bd
       0.03789263 0.048286617 0.047004037 -0.036631268
000120 38 34 27 3d 6e 1a 55 bc 32 15 e2 3d 7d 3d b0 3a
       0.040821284 -0.01300679 0.11039199 0.0013446059
000130 15 e5 01 bd 8a a1 c0 3c 8e 2b 41 3c 92 fc ed 3c
       -0.03171261 0.023514528 0.011790169 0.029051099
000140 5c d0 b6 3d 1c 79 a4 bc d6 0f 95 bd 2d 6e 12 3c
       0.0892646 -0.02007728 -0.07278411 0.008937401
000150 80 e0 89 3d 48 b7 93 3d 38 f1 85 3d 32 5c 3c bd
       0.06732273 0.072126925 0.065401495 -0.04598636
000160 a8 9e 98 bb fd 74 72 3d a9 c5 0e bd b5 8a e0 3d
       -0.004657585 0.0591936 -0.034856472 0.10963956
000170 9f 53 4c bb b5 e6 c0 3d 4e d7 9d 3d b6 ff 1d bd
       -0.0031177772 0.09419004 0.07707082 -0.038573943
000180 83 55 d4 bc c9 86 17 bd 68 46 1e bc fb d5 a2 bc
       -0.025919681 -0.036993776 -0.009660341 -0.019877424
000190 0b 6f 9b 3d 25 e5 0b 3d ea 94 ab bb 76 35 a1 3d
       0.07589539 0.034154076 -0.005236258 0.07871525
0001a0 70 c9 9e 3d 26 96 65 bd ab 0a a2 3d b8 4f a1 bd
       0.07753265 -0.056051396 0.07912191 -0.07876533
0001b0 20 3d 7c 3d 25 95 d9 bc 7a b7 83 3c d5 ae d7 3c
       0.06158173 -0.026560375 0.0160787 0.026328484
0001c0 86 35 15 3e db ec 83 bd d1 24 28 3c 27 36 37 3d
       0.14571199 -0.06441661 0.010262684 0.044729378
0001d0 7f 43 94 bd d5 9a aa bd dd 23 33 3b 96 88 8f 3c
       -0.07239436 -0.08330313 0.0027334609 0.017521184
0001e0 f5 e2 0a 3d 8c 7a 39 bc 8f 99 90 bc e4 a3 01 bc
       0.03390785 -0.011320721 -0.017651347 -0.00791261
0001f0 91 7a ae 3d 77 8b 3e bd 55 c1 75 bd 81 b3 e3 3d
       0.085194714 -0.046519723 -0.05999883 0.11118222

weight f4 [128, 24]
000000 dc e4 1e 3e 1f a4 99 be 2d ac 89 3e 8b 5b b3 be
       0.1551699 -0.30008027 0.26889172 -0.3503078
000010 c2 05 7f bd 28 0b 15 be 77 43 a2 bd 10 95 f6 be
       -0.06226135 -0.14555037 -0.07923024 -0.481606
000020 9a 85 0e bd 69 db 87 be 10 f5 1b 3f 45 b4 31 3d
       -0.03479538 -0.26534584 0.6092081 0.04338481
000030 cf 29 7f 3d ae ff b7 3e 0b 1b 94 bd 40 65 81 3d
       0.06229573 0.35937256 -0.072317205 0.0631814
000040 c6 59 92 3e 44 c6 12 3e e6 cc 81 bd 22 5a 2b bd
       0.28584117 0.14333445 -0.063379094 -0.041834004
000050 b1 62 16 3e 81 a2 39 3e 5b 24 95 be 51 fa 9b bd
       0.14686085 0.18128397 -0.291293 -0.076161034
000060 b7 15 41 bc 4d 9c 66 3e bd 78 e0 bc a4 f9 fb bc
       -0.011784962 0.22520562 -0.027401322 -0.030758686
000070 6c 7b 2e be 79 eb 25 3e 06 72 27 3d 46 e0 75 be
       -0.17039269 0.16203107 0.040880226 -0.24011335
000080 80 16 2d 3d 41 81 bf bd d6 89 99 3d a7 fe 82 be
       0.042257786 -0.09350825 0.07496993 -0.2558491
000090 e0 c5 6b 3e 09 ac 80 3e 81 df fd 3a 01 38 d4 3d
       0.23024702 0.25131252 0.0019368978 0.103622444
0000a0 08 dd 0d 3d 2a 2c e6 bd 4a 2e 41 be 5b 8e 50 bd
       0.03463462 -0.112388924 -0.18865314 -0.05091701
0000b0 ac e2 25 bd a0 c1 88 bd 10 51 35 be e1 dc 41 3e
       -0.040499374 -0.06677556 -0.17706704 0.18931915
0000c0 64 a8 e9 bd a5 9b 8d be b4 28 d7 3d cd 52 cb bd
       -0.11409071 -0.2765781 0.105058104 -0.09927902
0000d0 de 7c 94 3e 0d f0 62 3e 78 81 ed bd a1 25 14 3f
       0.29001516 0.22161885 -0.1159696 0.5786992
0000e0 db bc 3c bd 1b 10 64 bb 52 3c a1 bd 0c b3 79 be
       -0.046078544 -0.0034799639 -0.07872833 -0.24384707
0000f0 0b d8 6a 3d e5 7f 1a be 6b 55 27 be 73 93 b3 be
       0.05733494 -0.1508785 -0.16341178 -0.35073432
000100 34 01 7d 3d 37 99 c1 3c df 88 55 3c 77 40 04 3d
       0.061768726 0.023632629 0.013033121 0.03228804
000110 a3 70 77 3d 52 86 9c bd 47 0d ab bc 0b da 4a be
       0.060410153 -0.07642807 -0.020880355 -0.1980974
000120 fb 71 b7 3d 64 d4 75 3d 5c cb 1a 3d 71 2f a3 bd
       0.08957287 0.060017005 0.037791595 -0.07968033
000130 73 bc c6 3d a1 f9 0a bc 80 eb 9e 3e 08 dd 5d 3e
       0.097039126 -0.008482368 0.31039047 0.21666348
000140 08 f2 9c be 9e 75 23 3f 4f 3a 1f be 8a 13 21 3c
       -0.30653405 0.63851345 -0.15549587 0.009831319
000150 dc 38 d5 3d 5e d0 ea 3d 92 e8 31 be c6 20 55 be
       0.10411236 0.11465524 -0.17373875 -0.20813283
000160 30 92 88 bd 41 63 7e bc 7c d6 19 bc 9c 00 1f 3c
       -0.06668508 -0.015526594 -0.009389516 0.009704735
000170 af 18 c0 3a 8f 8f 24 3e bd f7 93 bd ec 38 cd 3d
       0.0014655794 0.16070388 -0.07224987 0.100206226
000180 32 5c 0d 3e 7a 27 e1 be b3 a3 10 bf c6 f3 99 3d
       0.13804701 -0.4397543 -0.56499785 0.07517199
000190 a7 cc 32 bc c5 17 d2 3e 4f 28 0c bf 31 31 67 3e
       -0.010913051 0.4103376 -0.54749006 0.22577359
0001a0 fe 07 dd 3d 77 2d 54 be 03 5f db bd a5 f9 2d bd
       0.1079254 -0.20720468 -0.107114814 -0.042474408
0001b0 99 9d 11 be 74 cb 4a 3d e5 a4 8b be d7 31 54 3e
       -0.14220275 0.049510434 -0.27274242 0.20722137
0001c0 d0 ce ca be e6 cd 6b 3c 40 a4 b7 bc ee 5c f2 bc
       -0.3961091 0.014392352 -0.022417188 -0.029585328
0001d0 26 30 bb bc be 60 ee 3d 00 42 da be f6 62 bf 3d
       -0.022850107 0.11639546 -0.4262848 0.09345047
0001e0 c1 4e 47 3e 1a e4 04 bf 26 a9 32 3e 4e fa d7 bb
       0.19463636 -0.51910555 0.17447338 -0.006591118
0001f0 fa a4 6d be da 0e c7 3e 0c 34 8a be b5 54 d1 3e
       -0.23207465 0.38878518 -0.26992834 0.4088494
000200 ab 8b 9f 3d 3c 48 ab 3d f6 65 da 3d 44 37 34 3e
       0.077903114 0.08363387 0.10663979 0.17599207
000210 3a ce 49 3c e2 25 37 bc 2b f3 1f 3d 20 10 a5 bd
       0.012317235 -0.011178466 0.039050262 -0.08059716
000220 9a ab c7 bd bf 3d 12 3b 01 53 35 bc f5 b5 b4 3d
       -0.09749527 0.0022314636 -0.011067153 0.08823768
000230 f9 ab 49 3d 8c ea c9 bd 4b d6 84 bb b0 b1 09 be
       0.04923627 -0.098591894 -0.004053866 -0.13446689
000240 4c 79 1c 3e 23 e6 00 be 30 cb 4d 3e 73 66 33 be
       0.15280646 -0.1258779 0.20097041 -0.1751955
000250 b8 2d 8b be ee 9e 67 bd da 22 67 3e 72 8c f3 bd
       -0.27183318 -0.05654805 0.22571889 -0.11892022
000260 d8 a1 da 3d 3a 3b 61 3e 58 9b c3 bd 36 a2 2c 3e
       0.106754005 0.2199525 -0.09551114 0.16858754
000270 e0 28 ae 3d 55 d6 80 3d 6d 91 11 bd 40 39 41 3c
       0.0850389 0.062908806 -0.03553908 0.011793435
000280 25 cf 81 3d a3 0b eb bd 1e 67 81 3e 3d 85 19 bd
       0.06338338 -0.11476829 0.25273985 -0.03748058
000290 2d 74 04 be ee f8 d1 bc b0 5c 35 bd d3 cb 45 bd
       -0.12934943 -0.025631394 -0.044277847 -0.048290085
0002a0 aa 58 9a 3d 90 b2 36 3e 8c 6f 6f 3d 4e 75 8c 3d
       0.075364426 0.17841554 0.05845599 0.068583116
0002b0 c7 80 a7 bb 5e 8e ea 3e 64 e3 5c 3e 58 aa 55 3d
       -0.005111787 0.45811743 0.21571118 0.052164406
0002c0 5d e5 b5 3e e4 69 fb 3d 8b c6 04 be 65 22 f5 bb
       0.35526553 0.122760564 -0.12966363 -0.007480907
0002d0 2e 3e 62 3c d0 b2 77 3c 44 86 a6 bd 06 14 15 bd
       0.01380877 0.015118316 -0.08131078 -0.03639605
0002e0 ef f4 9e bd ed 4a 43 3d b6 df 59 bc 1d 9c 40 3b
       -0.07761561 0.047678877 -0.013297966 0.0029389926
0002f0 d1 e8 9d 3d 7b 4d 18 bd 66 6e 50 3d 4d c6 e6 bc
       0.07710422 -0.037183266 0.050886534 -0.028170729
000300 5c bc 06 be 77 07 cd 3d ad 4e 86 be bf 15 23 be
       -0.13157791 0.100111894 -0.262319 -0.15926264
000310 a2 c9 05 3e 2f ac 93 be b3 00 51 3d 7b 64 b9 3e
       0.13065198 -0.28842303 0.051026057 0.36209473
000320 da c7 01 bd 6b 98 a2 3e 76 23 b9 bd 6c 85 48 be
       -0.031684734 0.3175691 -0.09039967 -0.19582146
000330 f4 eb 35 bd 7d 25 dd 3c 8c 17 80 3e 1b dc 7a bb
       -0.044414476 0.026995415 0.25017965 -0.0038278166
000340 77 f3 7c be 0b 86 d8 39 1b 86 3c bb 70 6e 0e bb
       -0.2470225 0.000412986 -0.0028766457 -0.0021733306
000350 8b 95 1a 3e 9b 83 b1 bc 7f 8d 5c 3d b2 6c 8f bd
       0.15096109 -0.0216692 0.05384588 -0.07003154
000360 ae c1 0b bd 22 65 d5 3d 9e b3 f4 3d d8 e5 cf 3d
       -0.034120254 0.1041968 0.11948322 0.10151261
000370 8d 8d 28 be 07 e1 bc be 6d 6c 98 be 65 52 eb 3b
       -0.16460247 -0.36890432 -0.29770222 0.007181453
000380 d7 40 6f bd 64 27 1f be 38 cc 47 be 72 44 26 3c
       -0.058411445 -0.1554237 -0.19511497 0.010148155
000390 e7 57 96 3d 2e b0 9c 3e 8f 4b b6 3e c6 bd 1f 3e
       0.07340985 0.30603164 0.35604522 0.15599737
0003a0 70 b5 53 be 44 25 d0 3b 4a 8a b9 bc 8d 6a 11 3b
       -0.20674682 0.0063520987 -0.02264895 0.0022188753
0003b0 cb 82 60 3c ec ad 66 be 9e 33 42 3e 06 48 08 3e
       0.0137030585 -0.22527283 0.18965003 0.13308725
0003c0 27 13 9b 3e eb da 0c 3e 63 1e 2c 3e eb 9c 3f bc
       0.3028805 0.13755386 0.16808467 -0.011695127
0003d0 52 ed ab bd a0 d0 3e be 3b 65 09 be 1b 1f 62 be
       -0.08394875 -0.18634272 -0.13417523 -0.22082178
0003e0 e4 bf 0c be 92 b1 89 3e ab c1 09 3f 6b 93 8b bd
       -0.13745075 0.26893288 0.5381114 -0.06815227
0003f0 59 5b 6f 3d 6c 7f 66 be 81 f9 2a be fe 99 c2 bd
       0.058436725 -0.22509545 -0.1669674 -0.09502028

bias f4 [128]
000000 76 c9 0d 3d 53 13 29 be 4d e1 16 3e 44 9c 17 3e
       0.034615956 -0.16511278 0.14734383 0.14805704
000010 b8 40 7a 3c 13 7b 13 3e ec cb 43 be 19 2f ea bc
       0.015274219 0.14402418 -0.19120759 -0.028586911
000020 bb c4 1b 3e 4d 30 a8 bd 05 5a 71 bc db 41 bc 3c
       0.15211765 -0.08212338 -0.014730935 0.022980621
000030 6d 93 a2 bd 4e 91 af 3d 31 d4 0f be a6 7a 53 3e
       -0.079382755 0.085726365 -0.14045788 0.20652255
000040 cc 8d 85 3d 14 ea 6d 3d bf f7 00 be 8e 52 93 3d
       0.06521186 0.058084562 -0.12594508 0.071934804
000050 00 33 39 3d 30 da 19 3d eb 0e 2b bd 86 f2 21 bd
       0.045214653 0.037561595 -0.041762274 -0.03953793
000060 72 12 08 bc 1d b7 04 be 6f f4 00 3e 2a fd 9e bb
       -0.008305179 -0.12960477 0.12593244 -0.004851957
000070 df ab 03 bc 9a 03 b3 bd 1c de 32 bd 16 0a ef 3b
       -0.008036583 -0.08740921 -0.04366885 0.0072949035
000080 29 50 ee 3d b6 5c 9f 3d 32 68 98 3d c6 6e a8 3c
       0.11636383 0.07781355 0.07441749 0.020560633
000090 2e d4 87 3e e7 e2 45 3e 1d f9 a3 bd 2c f4 02 3e
       0.26529068 0.19324838 -0.08006499 0.12788457
0000a0 ad 7c d8 3b 9d 56 62 bd 87 f1 9f bd d6 71 f8 3d
       0.0066066594 -0.055258382 -0.078097396 0.121310875
0000b0 9d 36 26 bc 2e 6a a5 3d 57 bc 92 3c a0 5e 33 3d
       -0.010144857 0.08076893 0.017912073 0.043791413
0000c0 5f d4 1a be 00 66 19 bd 84 5e 94 bd 5e 96 34 be
       -0.15120076 -0.03745079 -0.0724459 -0.17635486
0000d0 7d eb 6c 3e 26 98 86 3e 62 4d 19 3e 26 67 20 3d
       0.23136707 0.26287955 0.14970925 0.03916087
0000e0 79 a7 09 be f1 d0 ea 3d 98 07 bb bd cf f9 17 3e
       -0.13442792 0.11465634 -0.09132308 0.14841388
0000f0 b0 af 4a 3e e1 29 c5 3b 08 a1 fa 3d da 35 ab 3d
       0.19793582 0.0060169552 0.122377455 0.08359881
000100 03 e2 80 3d e8 d7 14 3e b5 5d 06 be 93 ec 11 3d
       0.06293108 0.14535487 -0.13121684 0.035626005
000110 17 d8 d7 3c 76 c2 e2 bd 37 35 ee 3d a1 aa 47 bd
       0.026348157 -0.11072247 0.11631244 -0.04874671
000120 02 13 81 bd e8 9c dc bb fd 0d c5 bd 3a 45 90 bd
       -0.063024536 -0.006732572 -0.09621809 -0.07044454
000130 1d 94 a9 3d e9 c1 a9 3d ad ef a5 bd 6d c5 f2 bd
       0.082802035 0.082889386 -0.08102355 -0.11854062
000140 dd cd 0c bc 1b 86 35 3e 3c a7 31 be e2 c1 c1 bc
       -0.0085940035 0.17726938 -0.17348951 -0.02365202
000150 e4 ed f3 3d 3c c3 4d be 7e e4 16 3c d6 2b 1e 3e
       0.119106084 -0.20094007 0.00920975 0.1544641
000160 be e7 e2 3d 70 97 97 3e 3f 8b 8c 3d 25 85 85 bd
       0.110793576 0.29607725 0.068624966 -0.06519536
000170 ef e9 af 3c 33 a1 09 3e 71 4f 25 bb 08 f7 97 3d
       0.021473853 0.13440399 -0.0025224353 0.07420164
000180 9c 87 e2 3d 3f db 73 bd 7f f8 b2 3c 07 4a 59 be
       0.11061022 -0.05953526 0.021847008 -0.21219645
000190 cf 59 d1 3d 93 b4 7e bc ac 5f 60 3d eb b4 5c bd
       0.10222208 -0.015545982 0.05477874 -0.053883474
0001a0 c1 93 b0 bc a5 de 81 3c 9a d8 00 3d 36 d3 52 3e
       -0.02155483 0.015853235 0.031456567 0.20588383
0001b0 ce 39 2b bd 5c 57 aa 3d 00 06 c9 3d 50 74 a3 3d
       -0.041803174 0.08317444 0.098155975 0.07981169
0001c0 43 bc 8c bd f8 22 29 3e b6 fe e9 3d df 4e 55 3a
       -0.068718456 0.16517246 0.114255354 0.0008137058
0001d0 89 90 91 bc 5b 4d 43 be 50 4f 14 be a3 8d 9f 3d
       -0.017769115 -0.19072478 -0.1448338 0.07790687
0001e0 7f 27 c5 bd 8b 09 b0 bd 3b 68 7f 3d 4d 3a fa bd
       -0.09626674 -0.0859557 0.06235526 -0.12218151
0001f0 5f a0 95 bb b8 3a 84 3d 4c 74 88 bc 1b 67 71 bd
       -0.004566237 0.06456512 -0.016657017 -0.05893622

weight f4 [128, 128]
000000 15 3f 1e be 57 1e 49 bb ca f4 2f 3a 40 00 bb 3d
       -0.15453751 -0.003068825 0.00067121966 0.09130907
000010 ea af ac bd 08 af 41 bd 26 ca 80 be 30 b0 1b be
       -0.084319904 -0.047286063 -0.25154227 -0.15203929
000020 51 42 8d 3c 5a cf c2 3d 5a 2b cd 3c 0c ec 0b bd
       0.017243536 0.095122054 0.025045086 -0.03416066
000030 64 6b ea bd f9 3a 94 3d ff 98 8a bd b6 5b 6c 3d
       -0.114462644 0.07237811 -0.06767463 0.05770465
000040 b8 9b 6f bd 27 bc c6 be 77 fc 61 bd db d0 ba bd
       -0.058498114 -0.38815424 -0.05517241 -0.09121867
000050 0b 0d 80 3c 4b 9d 5c bd aa 4f 98 3d 7d 3d 31 bd
       0.01563122 -0.053860944 0.0743707 -0.04327153
000060 5a db 28 3d 9e 46 c9 3d 57 8f 99 3d 83 de 0c 3b
       0.041224815 0.09827922 0.07498043 0.0021494932
000070 f4 d2 25 bd f2 ea a1 3c bc 43 cf ba 0c 40 dd bd
       -0.040484384 0.019765351 -0.0015813033 -0.108032316
000080 09 c2 7f bd 75 2d ea 3d 82 cd 55 bd ed 13 24 bd
       -0.062440906 0.114344515 -0.05219794 -0.040058065
000090 ec 88 d4 bd 8e cf e9 bb 3f 74 22 be 92 f6 e9 bd
       -0.10377678 -0.007135338 -0.15864657 -0.11423983
0000a0 fb 69 58 be 46 ea 9e bd ff a4 36 3d 3b 41 c9 3c
       -0.21134178 -0.07759528 0.044590946 0.024567237
0000b0 f2 45 bc 3d a4 b0 d7 3c 48 89 46 3d e5 ae a6 3d
       0.091930285 0.026329346 0.048470765 0.08138827
0000c0 7a 4a 54 3d df bf a9 bd 96 e3 9c bc ea 2c ee 3d
       0.05182884 -0.0828855 -0.01915149 0.116296604
0000d0 db 0b 4f 3e cf 1f 76 be bc 1c 9d 3d 69 c6 88 bc
       0.20219366 -0.24035572 0.07671496 -0.016696172
0000e0 ae 70 5a bd f9 1b 8f b7 ee 18 b8 3d 0c 87 92 bd
       -0.053330116 -1.7059954e-05 0.0898913 -0.071546644
0000f0 26 08 a2 bd 43 1b 5d bc 16 8f a8 3c 1b 30 16 be
       -0.079117104 -0.013495269 0.020576041 -0.14666788
000100 0f a5 e7 3b c1 99 4a 3c 5f 51 fc 3c 14 45 b5 bd
       0.007069237 0.012365759 0.03080052 -0.08851066
000110 4b 3c 84 bd ba f5 7e bd 05 f2 4c be 88 96 f3 bd
       -0.064568125 -0.06224606 -0.20014198 -0.11893946
000120 be 93 ce bc 54 f7 8a 3d f3 90 ae bd 1a af 8e 3c
       -0.025216933 0.06785455 -0.085237406 0.01741748
000130 54 30 ea bd b1 62 05 3e 4a 47 38 bd d2 cf 21 bb
       -0.11434999 0.13025929 -0.04498986 -0.002469052
000140 ad 2b 0a bd 98 81 00 be 28 f8 91 bc 9e 97 e5 3c
       -0.03373306 -0.12549436 -0.017818525 0.028026398
000150 53 0f 8c bd 58 36 da bd 1a 89 4a bc 13 37 50 39
       -0.0683886 -0.106548965 -0.012361789 0.00019856943
000160 cd 85 a0 bd 69 d5 8c be ab c3 c5 3d ca 05 d8 bd
       -0.078380205 -0.2750657 0.09656461 -0.10547979
000170 32 f8 1b be b1 c5 e7 bb 8d ad f1 bb b4 15 b6 3c
       -0.15231398 -0.007073127 -0.007375425 0.022227146
000180 29 07 77 be 42 58 b0 b9 b0 27 76 bc 62 e6 ae 3d
       -0.24123825 -0.00033635093 -0.015024111 0.08540036
000190 59 f5 24 3b 36 70 d4 3c 9a aa c5 3d 50 e6 18 3d
       0.0025170653 0.025932413 0.0965168 0.037329018
0001a0 c6 a8 74 3d a6 cd 7c bd 35 42 c6 bb 09 bb 5b be
       0.059731267 -0.06171956 -0.006050373 -0.21458067
0001b0 59 a5 ce bd a5 95 4f be ec cb 94 3d 8e 55 cd 3d
       -0.10090131 -0.20271929 0.072654575 0.10026084
0001c0 9b 7f aa bd 5e 9f f7 bd 79 3a a9 bc e0 e1 36 be
       -0.0832512 -0.12090944 -0.020657765 -0.17859602
0001d0 ec 83 39 3d 0c 7c be bd cd 5a a7 3d 55 da 11 3e
       0.045291826 -0.09301004 0.08171616 0.14243443
0001e0 e0 b4 3a bd 1a 80 54 3d 52 c7 2b 3d fc 30 00 3e
       -0.045582652 0.05187998 0.041938134 0.12518686
0001f0 2b 74 6a be 83 2a d9 3d c8 38 06 3d 34 01 c9 3c
       -0.22895877 0.106038116 0.032768995 0.024536707
000200 ed 5a 28 3d ee eb 1f be 17 18 93 bd a7 71 5f bd
       0.04110234 -0.15617344 -0.07182329 -0.054551747
000210 83 4b c4 bc b9 3d 65 bd ba 66 31 3e 0f 3a c2 bd
       -0.023961788 -0.055967066 0.17324343 -0.0948373
000220 a4 f2 2d bd c3 06 75 3d c5 a5 15 bd fe 5d 61 3d
       -0.04246773 0.0598209 -0.036535043 0.05502128
000230 d1 6f 26 bd 16 c2 66 3c 17 15 df 3d d9 6d 8a 3d
       -0.04063398 0.01408436 0.108926944 0.06759233
000240 bc 66 61 bc 1d a8 a6 3b 65 11 e5 3d 40 d1 7e bd
       -0.013757404 0.0050859586 0.11184958 -0.062211275
000250 09 c7 8e bd d2 1f c5 bd 2f c1 9b 3c 65 0c 49 bc
       -0.06971557 -0.0962521 0.019013016 -0.0122710215
000260 1c e3 39 3d 60 52 01 be 37 46 ca 3c e3 1b d3 3c
       0.045382604 -0.1262908 0.024691684 0.025770133
000270 a6 68 b1 bc bf 05 71 3c 2b 36 0a 3d 2a 25 94 3d
       -0.021656346 0.014710843 0.033743065 0.07233651
000280 b3 c6 d3 be 2c 07 72 3b dc a7 2a be e1 93 cc bd
       -0.41362533 0.0036930544 -0.16665596 -0.09989143
000290 c2 10 e5 3d 10 ad 6e bd 6e ea 72 bd f2 25 95 bd
       0.11184837 -0.058270514 -0.0593056 -0.07282628
0002a0 9e 1d ed bc 37 d6 fe 3d a0 41 18 3e cc 33 37 3d
       -0.028944787 0.12443202 0.14868784 0.04472713
0002b0 78 10 83 bc fa 31 0b 3e ac 88 b3 bc e4 c5 ad 3d
       -0.015999064 0.13593283 -0.021915756 0.0848501
0002c0 31 06 37 bb 1d 43 a4 3d d3 ae dc 3d 8e 85 ca bb
       -0.0027927274 0.08020613 0.107755326 -0.0061804717
0002d0 e1 bb 1a 3c b7 91 b8 bd 83 53 08 3e 91 05 a0 3a
       0.009444208 -0.09012168 0.13313107 0.001220869
0002e0 b9 cc d1 3c 87 40 a0 be d6 0f 76 be e5 67 81 bd
       0.025610315 -0.3129923 -0.24029478 -0.063186444
0002f0 88 f5 ec bb f6 b2 07 3d 72 cb ba bc fa 5e ff 3c
       -0.007231418 0.033129655 -0.022802088 0.031173218
000300 e8 f5 94 3d e2 0a b1 3c 60 d7 10 3e 5f 00 ac 3d
       0.072734654 0.021611635 0.14144659 0.08398508
000310 d3 88 03 bd 7c bb e4 3d a6 e1 09 bd 6e f5 14 be
       -0.032112908 0.11168572 -0.03366246 -0.14546749
000320 ba 36 63 3d da f7 eb bc d6 be 98 3d 2c e1 a9 bd
       0.055472113 -0.028804708 0.07458274 -0.08294901
000330 ad 8d 74 3d b1 2d 6b 3d 2f ab 94 3d e4 d7 47 3d
       0.059705425 0.05741662 0.07259213 0.048789874
000340 9f ae fb 3d 87 36 35 3c 4f c1 39 3d 4b 3c 19 bc
       0.12289166 0.011060364 0.04535037 -0.009352754
000350 ef e8 a9 3d 64 78 9d 3b 0a 70 87 bd 9f 64 f3 bc
       0.08296382 0.0048056114 -0.06613167 -0.029711066
000360 da 73 1b 3d 22 e3 46 3d ab 2d 71 3d 56 3a 30 bd
       0.03795228 0.048556454 0.058881443 -0.043024383
000370 e6 6e a0 bb e0 d6 44 3b 6a fb a7 3d 05 48 fa 3c
       -0.0048960326 0.0030035302 0.0820225 0.03055192
000380 82 db 8f be 57 a0 e9 3d c6 19 44 3c 5d 0c aa 3d
       -0.2809716 0.114075355 0.0119690355 0.08303139
000390 fb d4 53 3d db 84 06 3d 6d 36 f5 3b 52 0d 08 be
       0.051716786 0.032841545 0.0074832947 -0.13286331
0003a0 fe 33 24 3b 8a b1 4f bd 93 37 21 3d aa f6 7c 3d
       0.0025055404 -0.050706424 0.03935964 0.061758675
0003b0 bf 28 a1 bd d0 d8 8f be 2f ff cc 3c 05 82 8a bd
       -0.078691 -0.28095102 0.025024025 -0.067630805
0003c0 9f c9 e3 bc 33 23 2b bd a2 4c 2b bd 8d a1 af 3d
       -0.027806101 -0.041781615 -0.04182113 0.08575735
0003d0 1d 23 4c bd 2c 08 05 3e de d3 e1 bd 3b f7 94 bc
       -0.049838174 0.12991399 -0.110267386 -0.018184295
0003e0 14 c9 ea 3b d7 14 82 3e 58 68 be bd 59 99 97 3d
       0.0071650837 0.25406525 -0.09297246 0.074022956
0003f0 e2 da 3a 3e 92 a8 8b bd 7a b6 e9 3c 6c e4 0d bd
       0.1824756 -0.068192616 0.028529394 -0.03464167

bias f4 [128]
000000 80 ca e5 bc a7 32 14 bd 84 db 9d bd 1c fb 8f bd
       -0.028050661 -0.03618112 -0.07707885 -0.07030317
000010 bd 5c c4 bc 30 28 60 bd 7b 96 8e 3d 8d bb 5e 3d
       -0.023970002 -0.054725826 0.069622956 0.05437808
000020 55 99 24 3c 3e cb 4d bd d6 30 15 3c 49 68 08 3d
       0.010046323 -0.050242655 0.009105882 0.03330258
000030 3a 6f 0a 3d f4 5f b6 3c f1 8b 06 bd cd 07 7b bd
       0.03379748 0.02226255 -0.032848302 -0.061286736
000040 ac 8c c0 3c b9 72 6c 3d fe f8 f5 3a fe 26 8d bb
       0.023504578 0.057726596 0.0018766222 -0.0043076267
000050 37 cc 75 bc 8d d4 3a 3d 6f 87 eb bc 34 d5 8c bc
       -0.015002302 0.04561286 -0.028751103 -0.017191507
000060 2e bd 92 bc a7 54 34 bd e0 d4 bd 3c ba 72 97 3d
       -0.017912474 -0.044026043 0.023172796 0.07394929
000070 98 7f 3c bd 42 89 b2 bd 39 5b bb 3d 75 04 a7 bc
       -0.04602012 -0.08717586 0.09148259 -0.020387867
000080 75 a1 48 bd dd db 53 3c 7d 71 a1 ba 10 90 95 3d
       -0.048982102 0.012930837 -0.0012317147 0.07302868
000090 66 f0 9c 3c 61 ac 17 3d 7a 2d 28 3d b8 51 0d 3d
       0.0191576 0.037029628 0.041058995 0.03450176
0000a0 1a b8 42 bd 8c bd 52 bd 4a c1 88 3d 4e 34 26 bc
       -0.047538854 -0.051450297 0.06677492 -0.010144306
0000b0 c1 ed ee 3d 90 53 99 3d 69 9e 60 3c 9c d7 3f bd
       0.11666442 0.074866414 0.013709643 -0.04683648
0000c0 7f 82 d9 3c fc 09 50 bd 8a ff 73 3b a2 45 77 3c
       0.026551483 -0.05079077 0.003723117 0.015092285
0000d0 7c d1 af bd 22 5b c2 3d 76 56 e5 bc 0d 3f 22 3c
       -0.08584878 0.094900385 -0.02799533 0.009902728
0000e0 8a 8e ac 3d 46 1d 69 3d 6e 7f bd 3c c0 7f 36 bc
       0.08425625 0.056912683 0.023132052 -0.011138856
0000f0 c9 f7 56 bc 54 48 4f 3b 50 9f de 3c fa de ca 3d
       -0.0131206 0.0031628804 0.027175575 0.09905811
000100 4c b0 9b 3d 08 39 39 3d 15 5d 04 3d 89 f2 65 3d
       0.07601985 0.045220405 0.032315332 0.056139503
000110 fb 4f 07 3d 36 d5 06 bd 18 26 67 3d 7f 1f 85 3d
       0.03303526 -0.032918178 0.056432813 0.06500148
000120 22 de 80 bd 01 c2 78 bd b2 6f 93 3d 9c dc 39 bd
       -0.062923685 -0.06073189 0.071990386 -0.045376405
000130 d4 6c 01 bd ff d2 8f 3d a1 c4 46 bd 02 cc 08 be
       -0.031597927 0.07022666 -0.048527364 -0.13359073
000140 54 6c bf 3d 51 c1 9f 3d a7 ed f8 3d 7f 3b 82 3d
       0.09346834 0.07800544 0.121547036 0.06359004
000150 c0 12 7b bd c2 12 21 3c cb cd 8b bd 7d d3 01 3d
       -0.06129718 0.009831132 -0.06826361 0.03169583
000160 05 8c d8 bc 21 87 ff bb 07 b0 b5 bc ee 8c 22 bd
       -0.026433954 -0.007798091 -0.022178663 -0.039685182
000170 1b ec 40 3c 78 a2 f8 bc 07 f3 85 3d be 42 b0 ba
       0.011775042 -0.030350909 0.065404944 -0.0013447625
000180 ac 8b d0 bc a9 33 a2 3d 74 a7 a5 3d ff 3d 65 3c
       -0.025457226 0.0792001 0.0808858 0.013991832
000190 61 a5 ae 3d d9 36 52 3d b2 6b 08 bd 44 42 bd 3d
       0.08527637 0.051321838 -0.03330583 0.09241155
0001a0 9e c2 ce bd 5f bb a8 3d 95 c0 91 3d dc b4 96 3d
       -0.10095714 0.08238863 0.0711681 0.07358715
0001b0 86 37 02 bd 46 76 23 bc 2e 17 53 bd cb 0c 01 3e
       -0.031791233 -0.009976929 -0.051535778 0.12602536
0001c0 e1 29 03 bb 52 2d 63 3d cd a6 10 be a1 e9 43 bb
       -0.0020013975 0.055463143 -0.1412613 -0.0029893892
0001d0 9d 9f 81 3d 03 b3 34 bd 57 b6 47 3c 1d 8e c8 bd
       0.06329272 -0.04411603 0.012189469 -0.09792731
0001e0 8d bd 1d b8 2d c9 97 3d c7 9d 1e bd 49 16 53 3d
       -3.760825e-05 0.07411418 -0.038724687 0.051534925
0001f0 16 ac db bd f4 a6 52 bc ab 76 f6 3c 68 81 05 bd
       -0.10726182 -0.012857188 0.030085882 -0.032594115

in_proj_weight f4 [384, 128]
000000 43 16 bd 3d 36 7e 34 3e fd 08 52 3d 82 4e 8d 3d
       0.09232762 0.1762627 0.051278103 0.0689974
000010 f1 33 2e 3e 4c 36 86 3e 9c 26 04 3f 71 cf a1 3d
       0.17012002 0.262133 0.51621413 0.079008944
000020 72 cc fe 3d ad 56 14 be 9f 0c 0b 3d 1a d7 a4 bc
       0.124413386 -0.14486189 0.033947583 -0.0201221
000030 26 b5 f0 3c dd 04 03 bd 79 fe 96 3e 1a 93 78 bd
       0.029383253 -0.03198706 0.29491022 -0.060687162
000040 ce 2a b1 bd 83 76 e7 bd f9 d4 af 3d 1a 42 99 3c
       -0.086507425 -0.11301901 0.08585543 0.018708277
000050 5f 61 12 be c6 51 5e bd 51 9f cb 3d 4b d0 bd bd
       -0.14294957 -0.054277204 0.099424966 -0.09268244
000060 b9 7c 67 bd fd 60 95 bd 18 1a ee 3c 2a 46 de 3d
       -0.05651543 -0.0729389 0.029065177 0.108532265
000070 6f 7c 6d 3d e0 fc 17 be 82 5b e0 bd 17 da 44 bd
       0.057979997 -0.14842558 -0.10954954 -0.04805955
000080 9a 1c 36 3e 44 e3 87 3d a6 6f 0d bd 43 bb cb bc
       0.17784348 0.06635144 -0.034530304 -0.024869567
000090 04 3b 42 bc b5 df 31 3d 0f e3 51 3e 09 b7 66 3d
       -0.011854891 0.043426234 0.20496772 0.0563269
0000a0 de 49 a0 3c a8 e2 e0 bd 2b 09 8a 3e c7 7c e2 3b
       0.019566473 -0.10980731 0.2696012 0.0069118473
0000b0 f3 6d ac 3d 68 a3 11 3e d1 56 b5 3d 19 6c bd bd
       0.08419409 0.14222491 0.088544495 -0.092491336
0000c0 e5 d1 fe bc ad f6 55 3d c1 73 28 3e 10 65 07 3e
       -0.031105945 0.0522372 0.16450407 0.13222146
0000d0 d3 e6 75 bd 1b 07 37 bd 10 27 69 3d 18 c5 11 3e
       -0.060034584 -0.04468451 0.05692202 0.14235342
0000e0 1e 28 e5 bb 33 c2 b6 be cf 0a 3d 3e bb a5 c4 3d
       -0.0069933077 -0.35695037 0.18461154 0.09601923
0000f0 4e c8 d7 bc 40 fc 0b bd b4 c6 48 3d a1 d7 ce bc
       -0.02634063 -0.03417611 0.049017623 -0.025249304
000100 7c 5d 22 3d dd 89 21 3e 3e c7 61 bd 53 94 03 be
       0.039639935 0.15775247 -0.055121653 -0.1284955
000110 55 84 7a 3d f4 7a 79 3d 0a ba 30 bd f0 76 ab 3d
       0.061161358 0.060908273 -0.04314617 0.08372295
000120 bd b9 6b 3e d1 6d af bd c8 dc d5 bd c8 98 ec bd
       0.23020072 -0.08565868 -0.10442501 -0.11552578
000130 30 44 01 bd 30 3c 0a be ad 2a 3b 3e 38 74 80 bb
       -0.03155917 -0.13499522 0.18277998 -0.0039201044
000140 ba ef 39 3b 6a 08 da bd 56 12 49 be 11 ab 19 be
       0.0028371648 -0.10646136 -0.19635901 -0.15006663
000150 15 09 75 3c ab c2 e9 3b ee 6a cd bd 54 44 08 be
       0.014955779 0.007133802 -0.10030161 -0.13307315
000160 ec f4 00 bc 65 f1 ea bc 7f a6 84 bc cd c9 71 3d
       -0.007870894 -0.028679559 -0.016192673 0.059030343
000170 87 38 d5 bd e1 e6 f1 3c 9e 9c 09 bd 2a 04 33 3d
       -0.10411172 0.029529037 -0.033596627 0.043705143
000180 be d1 27 3f e2 4a be bb 2e 3c 6c 3d 70 1c a1 3c
       0.65554416 -0.0058072666 0.05767458 0.01966688
000190 1f 38 c4 3d 1a d6 e8 bd ee 2c b4 bc be 6a 28 bd
       0.09581017 -0.11368962 -0.02199408 -0.041117422
0001a0 0b 0f 91 bd 4e 52 67 3c ac f1 d0 bd 1c 9f 40 3b
       -0.07082947 0.014118744 -0.10202345 0.0029391712
0001b0 35 17 0e be 9e 29 b1 3d 5f 4d 71 3c b7 cc 17 bc
       -0.1387604 0.08650516 0.014727919 -0.009265116
0001c0 a7 93 12 bd a8 29 46 bc c7 fd fa bd ed 9d 94 3d
       -0.035785343 -0.012094893 -0.122554354 0.072566845
0001d0 96 e8 b0 bd 0e 5e 41 3c 68 40 8c bd f3 3c df bc
       -0.08638112 0.01180221 -0.06848222 -0.027250743
0001e0 6d 5d db bd 43 59 d4 3d 9e 93 5b 3e 9c 2c b1 3d
       -0.10711179 0.10368588 0.2144303 0.08651087
0001f0 5d ac fe bc c7 a8 67 3d a2 e1 b1 bd 50 6e b7 3d
       -0.031088049 0.056557443 -0.08685614 0.08956587
000200 1d d4 1e 3d 6f 2e c9 3b a7 91 79 3e 00 2d 04 3d
       0.038776506 0.0061395685 0.24371968 0.032269478
000210 e2 02 94 3c f5 b0 41 be ac 68 d3 be b1 f1 0f bd
       0.01806778 -0.1891516 -0.41290796 -0.035142604
000220 33 13 7e bd 8e 8f 04 3e bf b7 a4 3d a3 72 88 3e
       -0.06203003 0.12945387 0.08042859 0.2664996
000230 b5 62 1b be 22 38 3c bc 29 e9 70 be 81 09 73 3e
       -0.15174372 -0.0114879925 -0.23526444 0.23734094
000240 26 90 43 bd 80 c0 1b 3d e0 a6 e0 bd a0 1b 3c be
       -0.047744893 0.03802538 -0.10969329 -0.18369913
000250 5f 49 e2 3d f1 6a 1a 3e 6b 9f 71 bd 91 ec 67 bc
       0.11049151 0.15079857 -0.058989923 -0.014155523
000260 13 13 41 3d cd 9d 8f bd c0 fd 9b 3d 1e f9 06 3d
       0.04713733 -0.0701252 0.07616758 0.03295242
000270 1d a3 04 3e 99 f2 26 3d c5 0b 0b 3e 2b c5 5f bd
       0.12952848 0.040758703 0.13578708 -0.054631393
000280 31 3d 28 bd 67 41 82 bd 30 a6 0a 3e a3 77 14 3e
       -0.04107398 -0.06360131 0.13539958 0.14498763
000290 b0 62 a7 bd 8e f3 52 3e 91 9b 49 39 ed 50 37 be
       -0.0817312 0.20600721 0.00019226807 -0.17901964
0002a0 00 83 f5 bd 87 8a a2 3d 09 20 6b bd 23 2d 82 bd
       -0.11987877 0.07936578 -0.057403598 -0.063562654
0002b0 7d 1b 82 bd c7 b1 cf 3c 7a 4c b7 bd d7 ff 2f 3e
       -0.06352899 0.025353326 -0.089501336 0.17187439
0002c0 36 6d 02 bc fd ad 7e bd d6 19 02 3e af 29 ac 3b
       -0.007960608 -0.062177647 0.12705168 0.0052539925
0002d0 64 ca 2a 3e 3d 00 06 bd 8c f8 cf bc 2b a3 d0 bd
       0.16678768 -0.03271507 -0.025387071 -0.10187372
0002e0 ee 6a 14 3d 2f 0f 61 3e 69 ee c4 be 16 09 31 3d
       0.03623479 0.21978448 -0.38463143 0.043221556
0002f0 05 a2 22 3e 1e 1e ba bc b3 4e c8 bd 49 3c 76 3d
       0.15882118 -0.02271944 -0.09780636 0.060116086
000300 30 32 af 3d 74 7a 56 be 50 55 c0 3c 8c a0 18 be
       0.085544944 -0.2094515 0.02347818 -0.14904994
000310 54 49 47 be 42 22 fd 3d 40 67 82 3e d0 63 03 be
       -0.19461566 0.1236005 0.25469398 -0.12831044
000320 b5 ef 75 be a9 0a 08 bd df 6a b6 3d fc 23 30 3e
       -0.24017222 -0.03321329 0.08907103 0.17201227
000330 dd da 11 3e 09 0b fe 3d fb 04 48 3d 9c 67 e7 bd
       0.14243646 0.124044485 0.048832875 -0.11299059
000340 ad 35 94 bd 34 75 f9 bd e0 7a 93 3d 87 86 46 3e
       -0.072368 -0.12180558 0.07201171 0.19387256
000350 68 01 87 3e f5 74 c6 bd 06 9a 0d be 8d 91 05 be
       0.2636826 -0.096902765 -0.13828287 -0.13043804
000360 61 61 6f 3c 89 a9 1f 3d d5 d5 cb bd 29 5f 63 3e
       0.014610619 0.03898004 -0.099528946 0.2220427
000370 4b 71 3f 3d 3e f1 59 bd 6e 12 43 3d 5c 4d b1 bd
       0.046738904 -0.053208582 0.047624998 -0.08657333
000380 db 02 09 bf 4f f9 52 be c3 b8 b8 bc 2a 05 af bd
       -0.5351998 -0.20602916 -0.022549039 -0.08545907
000390 7d 31 8a bd bd 11 d5 3e 36 29 26 be 85 74 6d 3e
       -0.067477204 0.41615096 -0.16226658 0.2318898
0003a0 ca 8b d8 3d b4 6b 59 3d 23 88 79 be 51 cb 85 bc
       0.10573538 0.05308123 -0.24368338 -0.0163323
0003b0 fe 94 0b be 17 35 59 be ae b7 b9 bc 3a 97 6c 3e
       -0.13631055 -0.21211658 -0.022670593 0.23104563
0003c0 df 7d 68 3c 81 30 c5 3d 51 69 cc 3d a8 9f 1d bd
       0.014190166 0.09628392 0.09981025 -0.03848234
0003d0 11 d2 53 be c6 24 1b bd 00 11 bc bd e8 ef 3a 3e
       -0.20685603 -0.037876867 -0.0918293 0.1825558
0003e0 07 b9 09 3e ec d0 2f 3e 87 24 a1 be c0 c6 bc bc
       0.13449489 0.17169541 -0.3147318 -0.02304399
0003f0 72 da 1d 3d 6f a4 02 3e 3e 58 49 3e 2d 2e 4c 3e
       0.038538404 0.12758039 0.19662568 0.1993949
